…
time_length=1.0, total_deriv=None, train_T=False, val_freq=1, validate=False, warmup_iters=1000, weight_decay=0.0, zero_last=True)
Distributed initializing process group
Added key: store_based_barrier_key:1 to store for rank: 0
Distributed: success (0/4)
ODENVP(
  (transforms): ModuleList(
    (0): StackedCNFLayers(
      (chain): ModuleList(
        (0): LogitTransform()
        (1): CNF(
          (odefunc): RegularizedODEfunc(
            (odefunc): ODEfunc(
              (diffeq): ODEnet(
                (layers): ModuleList(
                  (0): ConcatConv2d(
                    (_layer): Conv2d(4, 64, kernel_size=(3, 3), stride=(1, 1), padding=(1, 1))
                  )
                  (1): ConcatConv2d(
                    (_layer): Conv2d(65, 64, kernel_size=(3, 3), stride=(1, 1), padding=(1, 1))
                  )
                  (2): ConcatConv2d(
                    (_layer): Conv2d(65, 64, kernel_size=(3, 3), stride=(1, 1), padding=(1, 1))
                  )
                  (3): ConcatConv2d(
                    (_layer): Conv2d(65, 3, kernel_size=(3, 3), stride=(1, 1), padding=(1, 1))
                  )
                )
                (activation_fns): ModuleList(
                  (0): Softplus(beta=1, threshold=20)
                  (1): Softplus(beta=1, threshold=20)
                  (2): Softplus(beta=1, threshold=20)
                )
              )
            )
          )
        )
        (2): CNF(
          (odefunc): RegularizedODEfunc(
            (odefunc): ODEfunc(
              (diffeq): ODEnet(
                (layers): ModuleList(
                  (0): ConcatConv2d(
                    (_layer): Conv2d(4, 64, kernel_size=(3, 3), stride=(1, 1), padding=(1, 1))
                  )
                  (1): ConcatConv2d(
                    (_layer): Conv2d(65, 64, kernel_size=(3, 3), stride=(1, 1), padding=(1, 1))
                  )
                  (2): ConcatConv2d(
                    (_layer): Conv2d(65, 64, kernel_size=(3, 3), stride=(1, 1), padding=(1, 1))
                  )
                  (3): ConcatConv2d(
                    (_layer): Conv2d(65, 3, kernel_size=(3, 3), stride=(1, 1), padding=(1, 1))
                  )
                )
                (activation_fns): ModuleList(
                  (0): Softplus(beta=1, threshold=20)
                  (1): Softplus(beta=1, threshold=20)
                  (2): Softplus(beta=1, threshold=20)
                )
              )
            )
          )
        )
        (3): SqueezeLayer()
        (4): CNF(
          (odefunc): RegularizedODEfunc(
            (odefunc): ODEfunc(
              (diffeq): ODEnet(
                (layers): ModuleList(
                  (0): ConcatConv2d(
                    (_layer): Conv2d(13, 64, kernel_size=(3, 3), stride=(1, 1), padding=(1, 1))
                  )
                  (1): ConcatConv2d(
                    (_layer): Conv2d(65, 64, kernel_size=(3, 3), stride=(1, 1), padding=(1, 1))
                  )
                  (2): ConcatConv2d(
                    (_layer): Conv2d(65, 64, kernel_size=(3, 3), stride=(1, 1), padding=(1, 1))
                  )
                  (3): ConcatConv2d(
                    (_layer): Conv2d(65, 12, kernel_size=(3, 3), stride=(1, 1), padding=(1, 1))
                  )
                )
                (activation_fns): ModuleList(
                  (0): Softplus(beta=1, threshold=20)
                  (1): Softplus(beta=1, threshold=20)
                  (2): Softplus(beta=1, threshold=20)
                )
              )
            )
          )
        )
        (5): CNF(
          (odefunc): RegularizedODEfunc(
            (odefunc): ODEfunc(
              (diffeq): ODEnet(
                (layers): ModuleList(
                  (0): ConcatConv2d(
                    (_layer): Conv2d(13, 64, kernel_size=(3, 3), stride=(1, 1), padding=(1, 1))
                  )
                  (1): ConcatConv2d(
                    (_layer): Conv2d(65, 64, kernel_size=(3, 3), stride=(1, 1), padding=(1, 1))
                  )
                  (2): ConcatConv2d(
                    (_layer): Conv2d(65, 64, kernel_size=(3, 3), stride=(1, 1), padding=(1, 1))
                  )
                  (3): ConcatConv2d(
                    (_layer): Conv2d(65, 12, kernel_size=(3, 3), stride=(1, 1), padding=(1, 1))
                  )
                )
                (activation_fns): ModuleList(
                  (0): Softplus(beta=1, threshold=20)
                  (1): Softplus(beta=1, threshold=20)
                  (2): Softplus(beta=1, threshold=20)
                )
              )
            )
          )
        )
      )
    )
  )
)
Number of trainable parameters: 337452
…
time_length=1.0, total_deriv=None, train_T=False, val_freq=1, validate=False, warmup_iters=1000, weight_decay=0.0, zero_last=True)
Distributed initializing process group
Added key: store_based_barrier_key:1 to store for rank: 0
Distributed: success (0/4)
ODENVP(
  (transforms): ModuleList(
    (0): StackedCNFLayers(
      (chain): ModuleList(
        (0): LogitTransform()
        (1): CNF(
          (odefunc): RegularizedODEfunc(
            (odefunc): ODEfunc(
              (diffeq): ODEnet(
                (layers): ModuleList(
                  (0): ConcatConv2d(
                    (_layer): Conv2d(4, 64, kernel_size=(3, 3), stride=(1, 1), padding=(1, 1))
                  )
                  (1): ConcatConv2d(
                    (_layer): Conv2d(65, 64, kernel_size=(3, 3), stride=(1, 1), padding=(1, 1))
                  )
                  (2): ConcatConv2d(
                    (_layer): Conv2d(65, 64, kernel_size=(3, 3), stride=(1, 1), padding=(1, 1))
                  )
                  (3): ConcatConv2d(
                    (_layer): Conv2d(65, 3, kernel_size=(3, 3), stride=(1, 1), padding=(1, 1))
                  )
                )
                (activation_fns): ModuleList(
                  (0): Softplus(beta=1, threshold=20)
                  (1): Softplus(beta=1, threshold=20)
                  (2): Softplus(beta=1, threshold=20)
                )
              )
            )
          )
        )
        (2): CNF(
          (odefunc): RegularizedODEfunc(
            (odefunc): ODEfunc(
              (diffeq): ODEnet(
                (layers): ModuleList(
                  (0): ConcatConv2d(
                    (_layer): Conv2d(4, 64, kernel_size=(3, 3), stride=(1, 1), padding=(1, 1))
                  )
                  (1): ConcatConv2d(
                    (_layer): Conv2d(65, 64, kernel_size=(3, 3), stride=(1, 1), padding=(1, 1))
                  )
                  (2): ConcatConv2d(
                    (_layer): Conv2d(65, 64, kernel_size=(3, 3), stride=(1, 1), padding=(1, 1))
                  )
                  (3): ConcatConv2d(
                    (_layer): Conv2d(65, 3, kernel_size=(3, 3), stride=(1, 1), padding=(1, 1))
                  )
                )
                (activation_fns): ModuleList(
                  (0): Softplus(beta=1, threshold=20)
                  (1): Softplus(beta=1, threshold=20)
                  (2): Softplus(beta=1, threshold=20)
                )
              )
            )
          )
        )
        (3): SqueezeLayer()
        (4): CNF(
          (odefunc): RegularizedODEfunc(
            (odefunc): ODEfunc(
              (diffeq): ODEnet(
                (layers): ModuleList(
                  (0): ConcatConv2d(
                    (_layer): Conv2d(13, 64, kernel_size=(3, 3), stride=(1, 1), padding=(1, 1))
                  )
                  (1): ConcatConv2d(
                    (_layer): Conv2d(65, 64, kernel_size=(3, 3), stride=(1, 1), padding=(1, 1))
                  )
                  (2): ConcatConv2d(
                    (_layer): Conv2d(65, 64, kernel_size=(3, 3), stride=(1, 1), padding=(1, 1))
                  )
                  (3): ConcatConv2d(
                    (_layer): Conv2d(65, 12, kernel_size=(3, 3), stride=(1, 1), padding=(1, 1))
                  )
                )
                (activation_fns): ModuleList(
                  (0): Softplus(beta=1, threshold=20)
                  (1): Softplus(beta=1, threshold=20)
                  (2): Softplus(beta=1, threshold=20)
                )
              )
            )
          )
        )
        (5): CNF(
          (odefunc): RegularizedODEfunc(
            (odefunc): ODEfunc(
              (diffeq): ODEnet(
                (layers): ModuleList(
                  (0): ConcatConv2d(
                    (_layer): Conv2d(13, 64, kernel_size=(3, 3), stride=(1, 1), padding=(1, 1))
                  )
                  (1): ConcatConv2d(
                    (_layer): Conv2d(65, 64, kernel_size=(3, 3), stride=(1, 1), padding=(1, 1))
                  )
                  (2): ConcatConv2d(
                    (_layer): Conv2d(65, 64, kernel_size=(3, 3), stride=(1, 1), padding=(1, 1))
                  )
                  (3): ConcatConv2d(
                    (_layer): Conv2d(65, 12, kernel_size=(3, 3), stride=(1, 1), padding=(1, 1))
                  )
                )
                (activation_fns): ModuleList(
                  (0): Softplus(beta=1, threshold=20)
                  (1): Softplus(beta=1, threshold=20)
                  (2): Softplus(beta=1, threshold=20)
                )
              )
            )
          )
        )
      )
    )
    (1): StackedCNFLayers(
      (chain): ModuleList(
        (0): CNF(
          (odefunc): RegularizedODEfunc(
            (odefunc): ODEfunc(
              (diffeq): ODEnet(
                (layers): ModuleList(
                  (0): ConcatConv2d(
                    (_layer): Conv2d(7, 64, kernel_size=(3, 3), stride=(1, 1), padding=(1, 1))
                  )
                  (1): ConcatConv2d(
                    (_layer): Conv2d(65, 64, kernel_size=(3, 3), stride=(1, 1), padding=(1, 1))
                  )
                  (2): ConcatConv2d(
                    (_layer): Conv2d(65, 64, kernel_size=(3, 3), stride=(1, 1), padding=(1, 1))
                  )
                  (3): ConcatConv2d(
                    (_layer): Conv2d(65, 6, kernel_size=(3, 3), stride=(1, 1), padding=(1, 1))
                  )
                )
                (activation_fns): ModuleList(
                  (0): Softplus(beta=1, threshold=20)
                  (1): Softplus(beta=1, threshold=20)
                  (2): Softplus(beta=1, threshold=20)
                )
              )
            )
          )
        )
        (1): CNF(
          (odefunc): RegularizedODEfunc(
            (odefunc): ODEfunc(
              (diffeq): ODEnet(
                (layers): ModuleList(
                  (0): ConcatConv2d(
                    (_layer): Conv2d(7, 64, kernel_size=(3, 3), stride=(1, 1), padding=(1, 1))
                  )
                  (1): ConcatConv2d(
                    (_layer): Conv2d(65, 64, kernel_size=(3, 3), stride=(1, 1), padding=(1, 1))
                  )
                  (2): ConcatConv2d(
                    (_layer): Conv2d(65, 64, kernel_size=(3, 3), stride=(1, 1), padding=(1, 1))
                  )
                  (3): ConcatConv2d(
                    (_layer): Conv2d(65, 6, kernel_size=(3, 3), stride=(1, 1), padding=(1, 1))
                  )
                )
                (activation_fns): ModuleList(
                  (0): Softplus(beta=1, threshold=20)
                  (1): Softplus(beta=1, threshold=20)
                  (2): Softplus(beta=1, threshold=20)
                )
              )
            )
          )
        )
        (2): SqueezeLayer()
        (3): CNF(
          (odefunc): RegularizedODEfunc(
            (odefunc): ODEfunc(
              (diffeq): ODEnet(
                (layers): ModuleList(
                  (0): ConcatConv2d(
                    (_layer): Conv2d(25, 64, kernel_size=(3, 3), stride=(1, 1), padding=(1, 1))
                  )
                  (1): ConcatConv2d(
                    (_layer): Conv2d(65, 64, kernel_size=(3, 3), stride=(1, 1), padding=(1, 1))
                  )
                  (2): ConcatConv2d(
                    (_layer): Conv2d(65, 64, kernel_size=(3, 3), stride=(1, 1), padding=(1, 1))
                  )
                  (3): ConcatConv2d(
                    (_layer): Conv2d(65, 24, kernel_size=(3, 3), stride=(1, 1), padding=(1, 1))
                  )
                )
                (activation_fns): ModuleList(
                  (0): Softplus(beta=1, threshold=20)
                  (1): Softplus(beta=1, threshold=20)
                  (2): Softplus(beta=1, threshold=20)
                )
              )
            )
          )
        )
        (4): CNF(
          (odefunc): RegularizedODEfunc(
            (odefunc): ODEfunc(
              (diffeq): ODEnet(
                (layers): ModuleList(
                  (0): ConcatConv2d(
                    (_layer): Conv2d(25, 64, kernel_size=(3, 3), stride=(1, 1), padding=(1, 1))
                  )
                  (1): ConcatConv2d(
                    (_layer): Conv2d(65, 64, kernel_size=(3, 3), stride=(1, 1), padding=(1, 1))
                  )
                  (2): ConcatConv2d(
                    (_layer): Conv2d(65, 64, kernel_size=(3, 3), stride=(1, 1), padding=(1, 1))
                  )
                  (3): ConcatConv2d(
                    (_layer): Conv2d(65, 24, kernel_size=(3, 3), stride=(1, 1), padding=(1, 1))
                  )
                )
                (activation_fns): ModuleList(
                  (0): Softplus(beta=1, threshold=20)
                  (1): Softplus(beta=1, threshold=20)
                  (2): Softplus(beta=1, threshold=20)
                )
              )
            )
          )
        )
      )
    )
    (2): StackedCNFLayers(
      (chain): ModuleList(
        (0): CNF(
          (odefunc): RegularizedODEfunc(
            (odefunc): ODEfunc(
              (diffeq): ODEnet(
                (layers): ModuleList(
                  (0): ConcatConv2d(
                    (_layer): Conv2d(13, 64, kernel_size=(3, 3), stride=(1, 1), padding=(1, 1))
                  )
                  (1): ConcatConv2d(
                    (_layer): Conv2d(65, 64, kernel_size=(3, 3), stride=(1, 1), padding=(1, 1))
                  )
                  (2): ConcatConv2d(
                    (_layer): Conv2d(65, 64, kernel_size=(3, 3), stride=(1, 1), padding=(1, 1))
                  )
                  (3): ConcatConv2d(
                    (_layer): Conv2d(65, 12, kernel_size=(3, 3), stride=(1, 1), padding=(1, 1))
                  )
                )
                (activation_fns): ModuleList(
                  (0): Softplus(beta=1, threshold=20)
                  (1): Softplus(beta=1, threshold=20)
                  (2): Softplus(beta=1, threshold=20)
                )
              )
            )
          )
        )
        (1): CNF(
          (odefunc): RegularizedODEfunc(
            (odefunc): ODEfunc(
              (diffeq): ODEnet(
                (layers): ModuleList(
                  (0): ConcatConv2d(
                    (_layer): Conv2d(13, 64, kernel_size=(3, 3), stride=(1, 1), padding=(1, 1))
                  )
                  (1): ConcatConv2d(
                    (_layer): Conv2d(65, 64, kernel_size=(3, 3), stride=(1, 1), padding=(1, 1))
                  )
                  (2): ConcatConv2d(
                    (_layer): Conv2d(65, 64, kernel_size=(3, 3), stride=(1, 1), padding=(1, 1))
                  )
                  (3): ConcatConv2d(
                    (_layer): Conv2d(65, 12, kernel_size=(3, 3), stride=(1, 1), padding=(1, 1))
                  )
                )
                (activation_fns): ModuleList(
                  (0): Softplus(beta=1, threshold=20)
                  (1): Softplus(beta=1, threshold=20)
                  (2): Softplus(beta=1, threshold=20)
                )
              )
            )
          )
        )
        (2): SqueezeLayer()
        (3): CNF(
          (odefunc): RegularizedODEfunc(
            (odefunc): ODEfunc(
              (diffeq): ODEnet(
                (layers): ModuleList(
                  (0): ConcatConv2d(
                    (_layer): Conv2d(49, 64, kernel_size=(3, 3), stride=(1, 1), padding=(1, 1))
                  )
                  (1): ConcatConv2d(
                    (_layer): Conv2d(65, 64, kernel_size=(3, 3), stride=(1, 1), padding=(1, 1))
                  )
                  (2): ConcatConv2d(
                    (_layer): Conv2d(65, 64, kernel_size=(3, 3), stride=(1, 1), padding=(1, 1))
                  )
                  (3): ConcatConv2d(
                    (_layer): Conv2d(65, 48, kernel_size=(3, 3), stride=(1, 1), padding=(1, 1))
                  )
                )
                (activation_fns): ModuleList(
                  (0): Softplus(beta=1, threshold=20)
                  (1): Softplus(beta=1, threshold=20)
                  (2): Softplus(beta=1, threshold=20)
                )
              )
            )
          )
        )
        (4): CNF(
          (odefunc): RegularizedODEfunc(
            (odefunc): ODEfunc(
              (diffeq): ODEnet(
                (layers): ModuleList(
                  (0): ConcatConv2d(
                    (_layer): Conv2d(49, 64, kernel_size=(3, 3), stride=(1, 1), padding=(1, 1))
                  )
                  (1): ConcatConv2d(
                    (_layer): Conv2d(65, 64, kernel_size=(3, 3), stride=(1, 1), padding=(1, 1))
                  )
                  (2): ConcatConv2d(
                    (_layer): Conv2d(65, 64, kernel_size=(3, 3), stride=(1, 1), padding=(1, 1))
                  )
                  (3): ConcatConv2d(
                    (_layer): Conv2d(65, 48, kernel_size=(3, 3), stride=(1, 1), padding=(1, 1))
                  )
                )
                (activation_fns): ModuleList(
                  (0): Softplus(beta=1, threshold=20)
                  (1): Softplus(beta=1, threshold=20)
                  (2): Softplus(beta=1, threshold=20)
                )
              )
            )
          )
        )
      )
    )
    (3): StackedCNFLayers(
      (chain): ModuleList(
        (0): CNF(
          (odefunc): RegularizedODEfunc(
            (odefunc): ODEfunc(
              (diffeq): ODEnet(
                (layers): ModuleList(
                  (0): ConcatConv2d(
                    (_layer): Conv2d(25, 64, kernel_size=(3, 3), stride=(1, 1), padding=(1, 1))
                  )
                  (1): ConcatConv2d(
                    (_layer): Conv2d(65, 64, kernel_size=(3, 3), stride=(1, 1), padding=(1, 1))
                  )
                  (2): ConcatConv2d(
                    (_layer): Conv2d(65, 64, kernel_size=(3, 3), stride=(1, 1), padding=(1, 1))
                  )
                  (3): ConcatConv2d(
                    (_layer): Conv2d(65, 24, kernel_size=(3, 3), stride=(1, 1), padding=(1, 1))
                  )
                )
                (activation_fns): ModuleList(
                  (0): Softplus(beta=1, threshold=20)
                  (1): Softplus(beta=1, threshold=20)
                  (2): Softplus(beta=1, threshold=20)
                )
              )
            )
          )
        )
        (1): CNF(
          (odefunc): RegularizedODEfunc(
            (odefunc): ODEfunc(
              (diffeq): ODEnet(
                (layers): ModuleList(
                  (0): ConcatConv2d(
                    (_layer): Conv2d(25, 64, kernel_size=(3, 3), stride=(1, 1), padding=(1, 1))
                  )
                  (1): ConcatConv2d(
                    (_layer): Conv2d(65, 64, kernel_size=(3, 3), stride=(1, 1), padding=(1, 1))
                  )
                  (2): ConcatConv2d(
                    (_layer): Conv2d(65, 64, kernel_size=(3, 3), stride=(1, 1), padding=(1, 1))
                  )
                  (3): ConcatConv2d(
                    (_layer): Conv2d(65, 24, kernel_size=(3, 3), stride=(1, 1), padding=(1, 1))
                  )
                )
                (activation_fns): ModuleList(
                  (0): Softplus(beta=1, threshold=20)
                  (1): Softplus(beta=1, threshold=20)
                  (2): Softplus(beta=1, threshold=20)
                )
              )
            )
          )
        )
      )
    )
  )
)
Number of trainable parameters: 1358868
…
